…
2026-07-08 06:45:05 | INFO    | [teacher] 08 Jul 06:45    INFO  [Evaluation]: eval_batch_size = [512] eval_args: [{'split': {'RS': [0.8, 0.1, 0.1]}, 'order': 'TO', 'group_by': 'user', 'mode': {'valid': 'full', 'test': 'full'}}]
2026-07-08 06:45:05 | INFO    | [teacher] 08 Jul 06:45    INFO  COREtrm(
2026-07-08 06:45:05 | INFO    | [teacher] 08 Jul 06:45    INFO  COREtrm(
2026-07-08 06:45:05 | INFO    | [teacher]   (sess_dropout): Dropout(p=0.2, inplace=False)
2026-07-08 06:45:05 | INFO    | [teacher]   (sess_dropout): Dropout(p=0.2, inplace=False)
2026-07-08 06:45:05 | INFO    | [teacher]   (item_dropout): Dropout(p=0.2, inplace=False)
2026-07-08 06:45:05 | INFO    | [teacher]   (item_dropout): Dropout(p=0.2, inplace=False)
2026-07-08 06:45:05 | INFO    | [teacher]   (item_embedding): Embedding(47091, 100, padding_idx=0)
2026-07-08 06:45:05 | INFO    | [teacher]   (item_embedding): Embedding(47091, 100, padding_idx=0)
2026-07-08 06:45:05 | INFO    | [teacher]   (loss_fct): CrossEntropyLoss()
2026-07-08 06:45:05 | INFO    | [teacher]   (loss_fct): CrossEntropyLoss()
2026-07-08 06:45:05 | INFO    | [teacher]   (net): TransNet(
2026-07-08 06:45:05 | INFO    | [teacher]   (net): TransNet(
2026-07-08 06:45:05 | INFO    | [teacher]     (position_embedding): Embedding(6, 100)
2026-07-08 06:45:05 | INFO    | [teacher]     (position_embedding): Embedding(6, 100)
2026-07-08 06:45:05 | INFO    | [teacher]     (trm_encoder): TransformerEncoder(
2026-07-08 06:45:05 | INFO    | [teacher]     (trm_encoder): TransformerEncoder(
2026-07-08 06:45:05 | INFO    | [teacher]       (layer): ModuleList(
2026-07-08 06:45:05 | INFO    | [teacher]       (layer): ModuleList(
2026-07-08 06:45:05 | INFO    | [teacher]         (0-1): 2 x TransformerLayer(
2026-07-08 06:45:05 | INFO    | [teacher]         (0-1): 2 x TransformerLayer(
2026-07-08 06:45:05 | INFO    | [teacher]           (multi_head_attention): MultiHeadAttention(
2026-07-08 06:45:05 | INFO    | [teacher]           (multi_head_attention): MultiHeadAttention(
2026-07-08 06:45:05 | INFO    | [teacher]             (query): Linear(in_features=100, out_features=100, bias=True)
2026-07-08 06:45:05 | INFO    | [teacher]             (query): Linear(in_features=100, out_features=100, bias=True)
2026-07-08 06:45:05 | INFO    | [teacher]             (key): Linear(in_features=100, out_features=100, bias=True)
2026-07-08 06:45:05 | INFO    | [teacher]             (key): Linear(in_features=100, out_features=100, bias=True)
2026-07-08 06:45:05 | INFO    | [teacher]             (value): Linear(in_features=100, out_features=100, bias=True)
2026-07-08 06:45:05 | INFO    | [teacher]             (value): Linear(in_features=100, out_features=100, bias=True)
2026-07-08 06:45:05 | INFO    | [teacher]             (softmax): Softmax(dim=-1)
2026-07-08 06:45:05 | INFO    | [teacher]             (softmax): Softmax(dim=-1)
2026-07-08 06:45:05 | INFO    | [teacher]             (attn_dropout): Dropout(p=0.5, inplace=False)
2026-07-08 06:45:05 | INFO    | [teacher]             (attn_dropout): Dropout(p=0.5, inplace=False)
2026-07-08 06:45:05 | INFO    | [teacher]             (dense): Linear(in_features=100, out_features=100, bias=True)
2026-07-08 06:45:05 | INFO    | [teacher]             (dense): Linear(in_features=100, out_features=100, bias=True)
2026-07-08 06:45:05 | INFO    | [teacher]             (LayerNorm): LayerNorm((100,), eps=1e-12, elementwise_affine=True)
2026-07-08 06:45:05 | INFO    | [teacher]             (LayerNorm): LayerNorm((100,), eps=1e-12, elementwise_affine=True)
2026-07-08 06:45:05 | INFO    | [teacher]             (out_dropout): Dropout(p=0.5, inplace=False)
2026-07-08 06:45:05 | INFO    | [teacher]             (out_dropout): Dropout(p=0.5, inplace=False)
2026-07-08 06:45:05 | INFO    | [teacher]           )
2026-07-08 06:45:05 | INFO    | [teacher]           )
2026-07-08 06:45:05 | INFO    | [teacher]           (feed_forward): FeedForward(
2026-07-08 06:45:05 | INFO    | [teacher]           (feed_forward): FeedForward(
2026-07-08 06:45:05 | INFO    | [teacher]             (dense_1): Linear(in_features=100, out_features=256, bias=True)
2026-07-08 06:45:05 | INFO    | [teacher]             (dense_1): Linear(in_features=100, out_features=256, bias=True)
2026-07-08 06:45:05 | INFO    | [teacher]             (dense_2): Linear(in_features=256, out_features=100, bias=True)
2026-07-08 06:45:05 | INFO    | [teacher]             (dense_2): Linear(in_features=256, out_features=100, bias=True)
2026-07-08 06:45:05 | INFO    | [teacher]             (LayerNorm): LayerNorm((100,), eps=1e-12, elementwise_affine=True)
2026-07-08 06:45:05 | INFO    | [teacher]             (LayerNorm): LayerNorm((100,), eps=1e-12, elementwise_affine=True)
2026-07-08 06:45:05 | INFO    | [teacher]             (dropout): Dropout(p=0.5, inplace=False)
2026-07-08 06:45:05 | INFO    | [teacher]             (dropout): Dropout(p=0.5, inplace=False)
2026-07-08 06:45:05 | INFO    | [teacher]           )
2026-07-08 06:45:05 | INFO    | [teacher]           )
2026-07-08 06:45:05 | INFO    | [teacher]         )
2026-07-08 06:45:05 | INFO    | [teacher]         )
2026-07-08 06:45:05 | INFO    | [teacher]       )
2026-07-08 06:45:05 | INFO    | [teacher]       )
2026-07-08 06:45:05 | INFO    | [teacher]     )
2026-07-08 06:45:05 | INFO    | [teacher]     )
2026-07-08 06:45:05 | INFO    | [teacher]     (LayerNorm): LayerNorm((100,), eps=1e-12, elementwise_affine=True)
2026-07-08 06:45:05 | INFO    | [teacher]     (LayerNorm): LayerNorm((100,), eps=1e-12, elementwise_affine=True)
2026-07-08 06:45:05 | INFO    | [teacher]     (dropout): Dropout(p=0.5, inplace=False)
2026-07-08 06:45:05 | INFO    | [teacher]     (dropout): Dropout(p=0.5, inplace=False)
2026-07-08 06:45:05 | INFO    | [teacher]     (fn): Linear(in_features=100, out_features=1, bias=True)
2026-07-08 06:45:05 | INFO    | [teacher]     (fn): Linear(in_features=100, out_features=1, bias=True)
2026-07-08 06:45:05 | INFO    | [teacher]   )
2026-07-08 06:45:05 | INFO    | [teacher]   )
2026-07-08 06:45:05 | INFO    | [teacher] )
2026-07-08 06:45:05 | INFO    | [teacher] )
2026-07-08 06:45:05 | INFO    | [teacher] Trainable parameters: 4894713
2026-07-08 06:45:05 | INFO    | [teacher] Trainable parameters: 4894713
2026-07-08 06:45:05 | INFO    | [teacher] 
…
